layer_weight/weights24.00.npy (npy, 3152 bytes, 1 tensors)

array f4 [4, 192]
000000 c3 2c 57 3f e2 94 84 3f 8d 5e 7e 3f 0c f7 70 3f
       0.84052676 1.0357935 0.99363023 0.94126964
000010 a3 a9 8a 3f c0 b8 85 3f 69 3c 8b 3f 01 30 6a 3f
       1.0833019 1.0447006 1.0877811 0.914795
000020 d1 fa 76 3f 5f a6 82 3f de 66 82 3f 58 87 5d 3f
       0.96476465 1.0207022 1.0187643 0.86534643
000030 00 a6 7f 3f 88 24 88 3f 13 54 87 3f ca a4 69 3f
       0.9986267 1.0636148 1.0572532 0.91267073
000040 a2 5a 80 3f a7 88 81 3f 2e df 6a 3f 02 61 67 3f
       1.0027659 1.0119828 0.91746795 0.903824
000050 2f f7 5d 3f 29 7f 83 3f 77 c6 86 3f 3f 08 5d 3f
       0.867053 1.0273181 1.0529317 0.8634071
000060 85 c7 4f 3f 9a 9a 6f 3f 71 00 7b 3f 02 d1 5e 3f
       0.8116382 0.9359528 0.9804755 0.8703767
000070 4c 2a 6b 3f af 2b 69 3f 0b ff 72 3f be 2a 62 3f
       0.91861415 0.9108228 0.94920415 0.8834647
000080 9b ea 7c 3f d0 c4 61 3f 7b ef 89 3f 38 bb 6e 3f
       0.9879548 0.8819094 1.0776209 0.93254423
000090 f6 f9 68 3f c3 3b 75 3f 83 f3 98 3f 7e 82 83 3f
       0.9100641 0.95794314 1.1949314 1.0274198
0000a0 2e 5e 6b 3f fa 9d 89 3f 2b c9 74 3f 29 af 64 3f
       0.9194058 1.0751336 0.9561946 0.89329773
0000b0 b1 4b 60 3f 05 c9 6f 3f 23 00 51 3f c5 08 7f 3f
       0.87615496 0.93666106 0.81640834 0.99622756
0000c0 06 a8 70 3f c4 8f 75 3f 41 a1 74 3f 8c c0 7c 3f
       0.94006383 0.95922494 0.95558554 0.98731303
0000d0 d9 f4 84 3f 57 3f 74 3f 14 d2 81 3f 3d 59 79 3f
       1.0387222 0.9540915 1.0142236 0.9740179
0000e0 3b 2a 87 3f 97 f6 89 3f 35 8c 80 3f 6a 3d 77 3f
       1.0559763 1.0778378 1.0042788 0.96578085
0000f0 f7 64 78 3f 4d eb 8a 3f 93 8b 84 3f d5 98 63 3f
       0.9702906 1.0853058 1.0355095 0.8890508
000100 9f 26 83 3f 00 a1 7b 3f 84 10 8d 3f d0 9c 6c 3f
       1.0246161 0.9829254 1.1020665 0.92426777
000110 75 8c 81 3f c8 77 88 3f 96 34 80 3f fe 00 73 3f
       1.0120989 1.0661554 1.0016048 0.9492339
000120 57 26 7f 3f b4 52 5e 3f cf bb 85 3f bc 2c 6a 3f
       0.99667877 0.86844945 1.044794 0.9147451
000130 39 d5 66 3f 39 7a 7a 3f 5e 04 69 3f 70 09 87 3f
       0.901691 0.97842747 0.9102229 1.0549755
000140 4f 4c 7e 3f e9 27 73 3f 2e c1 68 3f 56 98 78 3f
       0.9933519 0.94982773 0.9091977 0.97107446
000150 d2 19 66 3f 51 f6 78 3f a5 e3 7e 3f 2e 84 76 3f
       0.8988315 0.9725085 0.9956611 0.9629544
000160 36 26 6f 3f df db 66 3f ea f8 7a 3f e1 77 76 3f
       0.9341768 0.90179247 0.9803606 0.9627667
000170 7b 20 8d 3f 21 a6 77 3f 59 59 77 3f d4 be 81 3f
       1.1025537 0.9673787 0.9662071 1.0136361
000180 e3 2f 75 3f 52 5b 4f 3f 6d 6b 71 3f 10 14 72 3f
       0.95776194 0.8099872 0.94304544 0.9456186
000190 f1 7c 73 3f 7d 3a 77 3f 38 99 80 3f 84 94 72 3f
       0.9511252 0.9657362 1.0046759 0.94757867
0001a0 aa 2e 72 3f 58 15 5e 3f 1f cb 6a 3f 8b 75 83 3f
       0.94602454 0.8675132 0.9171619 1.0270246
0001b0 49 2a 64 3f ee e8 59 3f 53 be 7f 3f d1 97 80 3f
       0.8912702 0.8512105 0.99899787 1.0046331
0001c0 55 a8 7e 3f 84 cf 8a 3f 1c 79 6b 3f a8 9f 74 3f
       0.99475604 1.0844579 0.91981673 0.95556116
0001d0 d6 05 77 3f 65 3c 62 3f 12 9e 82 3f d6 cb 7b 3f
       0.9649328 0.88373405 1.0204489 0.98357904
0001e0 26 0f 6b 3f 5f 88 73 3f e4 3d 92 3f 22 a6 5a 3f
       0.9181999 0.9512996 1.1425138 0.8540975
0001f0 8e ca 82 3f 8c d6 7a 3f 7c a3 67 3f df 62 68 3f
       1.0218065 0.9798362 0.9048383 0.90775865
000200 8d e9 80 3f 44 88 58 3f 85 6c 66 3f 6c 09 86 3f
       1.0071274 0.84582925 0.9000934 1.0471625
000210 30 5b 7a 3f fb de 81 3f 8b 87 66 3f 43 3c 83 3f
       0.9779539 1.0146173 0.9005057 1.0252765
000220 35 e0 80 3f 07 3f 80 3f 92 8b 71 3f b6 49 85 3f
       1.0068423 1.0019234 0.9435359 1.041312
000230 a2 4d 5d 3f 9c f5 7b 3f c3 5d 82 3f 0d 2e 48 3f
       0.86446583 0.98421645 1.0184864 0.7819527
000240 3f 2d 72 3f 63 06 8c 3f af 2c 74 3f b6 d3 6b 3f
       0.9460029 1.0939449 0.9538068 0.9211992
000250 33 70 7c 3f 0d 51 88 3f e4 e1 71 3f 65 ff 88 3f
       0.986087 1.0649735 0.94485307 1.070294
000260 1a f5 80 3f 5d fb 6a 3f 98 bd 70 3f ce e2 81 3f
       1.0074799 0.917898 0.940393 1.014734
000270 50 00 83 3f e1 84 74 3f cb e1 81 3f 29 b8 65 3f
       1.023447 0.9551526 1.0147032 0.8973413
000280 1f 8b 7c 3f e3 15 7a 3f 3b 07 70 3f 53 5b 5f 3f
       0.9864978 0.97689646 0.9376103 0.87248725
000290 c0 18 7d 3f 72 39 88 3f ef a5 8c 3f d5 ac 6d 3f
       0.9886589 1.0642531 1.0988139 0.92841846
0002a0 ad db 6b 3f 1c 3d 65 3f d5 65 83 3f 60 e8 7c 3f
       0.92132074 0.8954637 1.0265452 0.98792076
0002b0 a8 ac 72 3f 94 56 6c 3f 74 91 87 3f ad ab 88 3f
       0.947947 0.9231961 1.0591264 1.0677391
0002c0 61 a9 89 3f b5 0c 76 3f bc 6a 6a 3f ca 67 6a 3f
       1.0754815 0.9611314 0.91569114 0.9156462
0002d0 8d be 81 3f 86 b9 a1 3f 35 f2 7e 3f 33 4a 76 3f
       1.0136276 1.2634742 0.9958833 0.9620697
0002e0 8f 16 6d 3f 58 4e 80 3f fe 8f 8c 3f 87 7e 66 3f
       0.92612547 1.0023909 1.0981443 0.90036815
0002f0 36 50 79 3f 05 ec 87 3f 0b 22 7d 3f d9 3e 80 3f
       0.9738802 1.0618902 0.9888007 1.001918
000300 6a c9 96 be b1 7f 89 be de c6 5f be ca 59 77 be
       -0.29450542 -0.26855233 -0.21853206 -0.24155346
000310 e8 25 93 be 9a 3f 69 be 86 f3 9f be 1c 3a 9b be
       -0.28739858 -0.22778168 -0.3124048 -0.3031777
000320 c7 43 01 bf a1 a0 a0 be 19 4a 55 be 27 56 51 be
       -0.50494045 -0.3137255 -0.20829047 -0.20443021
000330 79 5b a0 be 7c ca b4 be 09 99 93 be 64 42 c8 be
       -0.31319788 -0.35310733 -0.28827694 -0.39113152
000340 49 b3 74 be 3f ce c9 be 9e 6e c8 be 1c 64 ab be
       -0.23896517 -0.39415166 -0.39146894 -0.33474815
000350 8d 08 85 be 10 e3 99 be 5a cd 97 be 70 bf c3 be
       -0.25983086 -0.30056047 -0.29648858 -0.38231993
000360 0e 9f bd be b2 54 be be 52 c9 aa be c8 ef 73 be
       -0.37035412 -0.37173992 -0.3335672 -0.23821938
000370 dd 2d 42 be 06 bd a0 be fd 7c 44 be 29 ae 88 be
       -0.18962808 -0.31394213 -0.19188304 -0.26695374
000380 b2 a2 90 be e8 56 d8 be d2 70 65 be cb 77 fb be
       -0.28249127 -0.42253804 -0.22406319 -0.49114832
000390 ba 88 d3 be d4 de 15 be 77 db 05 be b7 1c 93 be
       -0.41315252 -0.14635783 -0.13072 -0.28732845
0003a0 f3 57 65 be 37 e6 f0 be 8b 05 b3 be 04 f9 8d be
       -0.22396831 -0.4705064 -0.34965166 -0.27729046
0003b0 39 78 9f be be a5 00 bf d4 de d1 be 52 c9 f1 bd
       -0.3114641 -0.502529 -0.40990317 -0.11805977
0003c0 07 27 8c be dc 84 5f be 6c 82 2c be 5f eb c8 be
       -0.27373526 -0.21828026 -0.16846627 -0.39242074
0003d0 4e 6a 37 be 8e 18 c0 be 58 03 b5 be 0a ec 5f be
       -0.17911646 -0.37518734 -0.35354114 -0.21867386
0003e0 48 8f 3e be 4c a8 b0 be 02 82 7e be ef 70 7b be
       -0.18609345 -0.345034 -0.24854282 -0.245548
0003f0 4b f3 a4 be e5 39 3f be 5b 84 d0 be d7 95 44 be
       -0.32216868 -0.18674429 -0.4072598 -0.19197784
