layer_weight/weights11.00.npy (npy, 3152 bytes, 1 tensors)

array f4 [4, 192]
0	0x3f3c9677	0.7366709
1	0x3f9f4393	1.2442497
2	0x3f8f63e5	1.120236
3	0x3f72c824	0.9483664
4	0x3f8b0a25	1.0862471
5	0x3f829fcc	1.0205016
6	0x3f56116c	0.83620334
7	0x3f516914	0.8180096
8	0x3f4de0be	0.80421054
9	0x3f67f0b0	0.90601635
10	0x3f4eb75a	0.8074852
11	0x3f73dbb7	0.95257133
12	0x3f3aee1a	0.73019564
13	0x3f83aa04	1.028626
14	0x3f84c17f	1.037155
15	0x3f3465b0	0.7046766
16	0x3f45c6be	0.7725638
17	0x3f696399	0.911676
18	0x3f8623db	1.0479692
19	0x3f4a3a76	0.78995454
20	0x3f7152d9	0.9426704
21	0x3f934d15	1.1507899
22	0x3fa26988	1.2688456
23	0x3fa1a467	1.2628297
24	0x3f6efca2	0.9335424
25	0x3f74127b	0.953407
26	0x3f8794e5	1.0592314
27	0x3f666a05	0.9000552
28	0x3f428dbc	0.7599752
29	0x3f65f81d	0.89831716
30	0x3f4eff15	0.80857974
31	0x3f5ce5ef	0.8628835
32	0x3f5489f3	0.83022994
33	0x3f830d34	1.0238404
34	0x3f894b3b	1.0726084
35	0x3f8aa477	1.0831441
36	0x3f6a31fa	0.9148251
37	0x3f674dc3	0.9035303
38	0x3f5c5085	0.86060363
39	0x3f6a6058	0.9155326
40	0x3f595df5	0.8490899
41	0x3f4e805b	0.80664605
42	0x3f4e78b8	0.8065295
43	0x3f899969	1.0749942
44	0x3f93f89b	1.1560243
45	0x3f4b28c0	0.79359055
46	0x3f8c2e15	1.0951563
47	0x3fb3c09c	1.4043155
48	0x3f4fb00f	0.8112802
49	0x3f44d060	0.76880455
50	0x3f784985	0.9698718
51	0x3f6b4b33	0.9191162
52	0x3f8f1f05	1.1181341
53	0x3f4f68f5	0.81019527
54	0x3f607efb	0.87693757
55	0x3f51cba3	0.8195135
56	0x3f2d1986	0.6761707
57	0x3f4f32eb	0.8093707
58	0x3f3bba8d	0.7333153
59	0x3f6f74e3	0.9353773
60	0x3f83d2ee	1.0298746
61	0x3f75bc4e	0.95990455
62	0x3f722345	0.9458507
63	0x3f56ed67	0.83956
64	0x3f89d5f8	1.0768423
65	0x3f8102f4	1.0079026
66	0x3f8ea812	1.1145041
67	0x3f8ad138	1.0845098
68	0x3f980dcb	1.1879209
69	0x3f2d8fe9	0.67797714
70	0x3f69f75a	0.91393054
71	0x3f4f8ecf	0.81077284
72	0x3f3a5c70	0.727973
73	0x3f7e053c	0.9922674
74	0x3f51e227	0.81985706
75	0x3f2577e0	0.6463604
76	0x3f456d56	0.7711996
77	0x3f7ac449	0.9795576
78	0x3f43164e	0.7620591
79	0x3f6678cd	0.9002808
80	0x3f8c5f28	1.0966539
81	0x3f616abb	0.8805348
82	0x3f806d91	1.0033437
83	0x3f835529	1.0260364
84	0x3f7bfefe	0.9843596
85	0x3f741809	0.95349175
86	0x3f77e3ff	0.9683227
87	0x3f980f9f	1.1879767
88	0x3f95d747	1.1706322
89	0x3f94c893	1.162371
90	0x3f860237	1.0469426
91	0x3f92fdbc	1.1483684
92	0x3f814598	1.0099363
93	0x3f742968	0.9537568
94	0x3f738939	0.9513126
95	0x3f900214	1.1250634
96	0x3f748f44	0.95531106
97	0x3f6d3bb7	0.9266924
98	0x3f634146	0.88771474
99	0x3f6ebbc2	0.93255246
100	0x3f48710b	0.7829749
101	0x3f8fa73f	1.1222914
102	0x3f6dd391	0.9290095
103	0x3f4c94d0	0.7991457
104	0x3f56c792	0.8389827
105	0x3f63a0bd	0.8891714
106	0x3f77e5bd	0.9683493
107	0x3f94a922	1.1614115
108	0x3f870a93	1.0550102
109	0x3f8eb526	1.1149032
110	0x3f907757	1.128642
111	0x3f81180a	1.0085461
112	0x3f826ddf	1.018978
113	0x3f8494ef	1.0357951
114	0x3f569652	0.8382312
115	0x3f37121f	0.71512026
116	0x3f574eb3	0.8410446
117	0x3f810f3a	1.0082772
118	0x3f6e0ec2	0.9299127
119	0x3f3f5992	0.7474605
120	0x3f55f6bc	0.8357961
121	0x3f5c4c19	0.86053616
122	0x3f54dd05	0.8314975
123	0x3f6d636a	0.9272982
124	0x3f7a4e93	0.97776145
125	0x3f56cb16	0.83903635
126	0x3f6fff4c	0.9374893
127	0x3f7ae222	0.980013
128	0x3f9e45d4	1.236506
129	0x3f9e2403	1.235474
130	0x3fa3b58d	1.278978
131	0x3f9539c3	1.1658252
132	0x3f8671fc	1.0503535
133	0x3f6f3e9b	0.93454903
134	0x3f887993	1.0662102
135	0x3f40241c	0.750551
136	0x3f5c29fa	0.8600155
137	0x3f775d20	0.9662647
138	0x3fa26c05	1.2689215
139	0x3f46a652	0.77597535
140	0x3f379ce7	0.7172379
141	0x3f75d526	0.96028364
142	0x3f4b1d34	0.79341435
143	0x3f84efdd	1.03857
144	0x3f584e87	0.84494823
145	0x3f3ecd12	0.7453166
146	0x3f7407c5	0.95324355
147	0x3f67b74e	0.90514076
148	0x3f4364b3	0.7632553
149	0x3f57ca98	0.8429351
150	0x3f72fe1e	0.94919
151	0x3f96d5be	1.1783979
152	0x3fa6ddcf	1.3036441
153	0x3f6c006d	0.9218815
154	0x3fa997e2	1.3249476
155	0x3f2be35a	0.67143786
156	0x3f3d4e7e	0.73947895
157	0x3f6e7671	0.9314948
158	0x3f6abee7	0.91697544
159	0x3f81e3fe	1.0147703
160	0x3f5d446c	0.8643253
161	0x3f358687	0.709084
162	0x3f4043a3	0.75103205
163	0x3f6d40b8	0.9267688
164	0x3f2a581f	0.6654071
165	0x3f51f79c	0.82018447
166	0x3f704fe2	0.9387189
167	0x3f3da779	0.7408367
168	0x3f3f71ab	0.7478282
169	0x3f4bd16c	0.7961643
170	0x3f4c8369	0.79888016
171	0x3f755e49	0.9584699
172	0x3f8cb4c2	1.0992663
173	0x3f591310	0.8479471
174	0x3f945e2c	1.1591239
175	0x3f8e6184	1.112351
176	0x3f623542	0.88362515
177	0x3f4abf5a	0.7919823
178	0x3f5ca063	0.8618223
179	0x3f3571a1	0.7087651
180	0x3f4b49cb	0.79409474
181	0x3f2e0ad1	0.67985255
182	0x3f90f375	1.1324297
183	0x3f5daea8	0.8659463
184	0x3f474de1	0.7785321
185	0x3f5ce1c6	0.86282
186	0x3f3dcdda	0.7414223
187	0x3f40d177	0.7531962
188	0x3f66fa3e	0.9022559
189	0x3f59cfeb	0.8508288
190	0x3f72fea2	0.9491979
191	0x3f68d728	0.909533
192	0xbee3263a	-0.44365102
193	0xbe321e0c	-0.17394274
194	0xbebc6ed4	-0.36803305
195	0xbeb5c1e0	-0.35499477
196	0xbe98f1ec	-0.29872072
197	0xbf0eae05	-0.5573428
198	0xbefb54aa	-0.4908803
199	0xbec34610	-0.3813939
200	0xbf02ec3a	-0.51141703
201	0xbebfc67f	-0.37456128
202	0xbf15b1b0	-0.58474255
203	0xbee664ea	-0.44998866
204	0xbe836943	-0.25666246
205	0xbf03fb75	-0.5155557
206	0xbead0bfc	-0.33798206
207	0xbec4d937	-0.38446972
208	0xbef2a16a	-0.47388774
209	0xbea0edf0	-0.31431532
210	0xbf1d5af3	-0.614669
211	0xbea9d505	-0.33170334
212	0xbeb622e3	-0.3557349
213	0xbe8df3b2	-0.27724987
214	0xbe9dcb4f	-0.30819175
215	0xbd6c0dd3	-0.05763037
216	0xbed22698	-0.4104507
217	0xbeb411af	-0.35169742
218	0xbe8a9f05	-0.27074447
219	0xbeed87d0	-0.4639268
220	0xbedf20f0	-0.43579817
221	0xbecf2eff	-0.40465543
222	0xbecc8f1f	-0.39952943
223	0xbea8f4db	-0.3299931
224	0xbeb27409	-0.34854153
225	0xbe7dbbf2	-0.24778727
226	0xbf11155c	-0.56673217
227	0xbecf365e	-0.40471166
228	0xbf0695ab	-0.52572125
229	0xbef8e167	-0.48609468
230	0xbea78ad0	-0.32723093
231	0xbeb17670	-0.34660673
232	0xbe697794	-0.22799522
233	0xbed25219	-0.4107826
234	0xbeda6ecc	-0.42662656
235	0xbe776592	-0.2415984
236	0xbec2280f	-0.37921187
237	0xbea7a422	-0.3274241
238	0xbe2aafdf	-0.16668652
239	0xbe9f53cf	-0.31118628
240	0xbeae4b37	-0.3404176
241	0xbed2377c	-0.41057956
242	0xbed09279	-0.4073675
243	0xbed7d47a	-0.42154294
244	0xbf01607d	-0.50537854
245	0xbecccb66	-0.3999893
246	0xbe98cd84	-0.29844296
247	0xbf0bb3dd	-0.54571325
248	0xbefaad75	-0.48960462
249	0xbeb2ae90	-0.34898806
250	0xbeb1381a	-0.34613115
251	0xbeeedbc2	-0.46652037
252	0xbecbc36e	-0.3979754
253	0xbed4dc47	-0.41574308
254	0xbe8d7bde	-0.27633566
255	0xbf12f69f	-0.57407564
