layer_weight/weights7.00.npy (npy, 1616 bytes, 1 tensors)

array f4 [4, 96]
000000 c6 60 7c 3f 29 0a 8d 3f 8d 71 76 3f 55 73 7d 3f
       0.98585165 1.1018726 0.96267015 0.9900411
000010 db 3b 76 3f f1 b7 7f 3f 64 4e 68 3f 4e 26 75 3f
       0.9618508 0.9989005 0.90744615 0.95761573
000020 4a 8a 6d 3f c3 3f 7f 3f 93 62 6a 3f 25 79 86 3f
       0.9278914 0.9970667 0.9155666 1.050572
000030 ac 04 86 3f 8c c0 77 3f 0b ac 89 3f 56 3b 81 3f
       1.0470176 0.9677818 1.0755628 1.0096233
000040 af ed 63 3f 68 b2 81 3f 9b 0e 69 3f c4 3a 86 3f
       0.8903455 1.013257 0.9103791 1.0486684
000050 0f 2b 91 3f 22 29 81 3f 59 54 75 3f 23 12 78 3f
       1.1341265 1.0090678 0.9583183 0.96902674
000060 29 8d 81 3f 78 2d 7f 3f dd 3e 83 3f c4 43 84 3f
       1.0121204 0.99678755 1.0253559 1.033318
000070 cc 29 83 3f 9b c4 83 3f 2f 13 7b 3f 8a 28 8d 3f
       1.024713 1.0294374 0.98076147 1.1027997
000080 da 2f 84 3f 38 7c 77 3f 0f 68 7d 3f cf 56 81 3f
       1.0327103 0.9667392 0.98986906 1.0104617
000090 93 e2 82 3f 0f 50 8b 3f 35 4a 7b 3f ca 68 84 3f
       1.0225395 1.0883807 0.98160106 1.0344479
0000a0 23 a2 75 3f 1a 33 82 3f 07 d2 81 3f 9f 8d 85 3f
       0.95950526 1.0171845 1.014222 1.0433844
0000b0 4c 28 85 3f 6d 2f 89 3f 37 31 71 3f dc 50 82 3f
       1.0402923 1.0717598 0.9421572 1.0180926
0000c0 c0 ec 8b 3f 6c ea 8d 3f e0 ca 81 3f e3 74 60 3f
       1.0931625 1.1087165 1.0140038 0.87678355
0000d0 2f 5d 85 3f 8e fb 80 3f 30 2c 85 3f f3 dc 84 3f
       1.0419062 1.0076768 1.040411 1.0379928
0000e0 f6 0b 67 3f f7 e8 78 3f f3 62 73 3f d0 63 82 3f
       0.90252626 0.97230476 0.9507286 1.018671
0000f0 31 c4 87 3f 68 d9 71 3f 06 97 8b 3f 88 17 7c 3f
       1.0606748 0.9447236 1.0905464 0.98473406
000100 d4 da 86 3f b2 1b 83 3f 17 e2 88 3f c6 5f 61 3f
       1.0535531 1.0242827 1.0693997 0.88036764
000110 71 13 6c 3f 61 7a 7b 3f fa ab 77 3f e2 bf 5e 3f
       0.92217165 0.9823361 0.9674679 0.8701154
000120 04 11 6f 3f ac 2c 79 3f c3 2e 7e 3f ea 53 64 3f
       0.9338534 0.9733379 0.992901 0.8919054
000130 d2 a0 77 3f 50 a1 8a 3f 50 ea 64 3f 5f dd 85 3f
       0.9672977 1.0830479 0.8942003 1.0458182
000140 fe 60 79 3f 58 4e 6f 3f aa 9b 7a 3f 25 96 82 3f
       0.97413623 0.9347892 0.97893775 1.020207
000150 c9 16 82 3f 51 16 7f 3f 7d 6e 69 3f 3b 23 80 3f
       1.0163203 0.9964343 0.91184217 1.0010751
000160 21 8c 78 3f 18 01 81 3f f6 a2 8a 3f 3f d5 7a 3f
       0.9708882 1.0078459 1.0830982 0.9798164
000170 72 12 85 3f f3 ff 81 3f 0c 6a 8b 3f fc 13 80 3f
       1.0396254 1.0156235 1.0891738 1.0006099
000180 b6 e8 21 be f6 dc 8f be b0 e5 d0 bd 1c b2 7d be
       -0.15811428 -0.28098267 -0.102000594 -0.24774975
000190 5d 03 69 be 85 24 75 bd 5d 51 93 be 06 7b e4 bd
       -0.22755189 -0.05984928 -0.28773013 -0.11156277
0001a0 90 04 d6 bd 85 20 97 be 70 77 50 be 84 fb fd bd
       -0.10450089 -0.29516998 -0.20358062 -0.124014884
0001b0 70 ad 2f 3b 98 81 5c be 03 fd 3c be dc bf 00 be
       0.0026806258 -0.21533811 -0.18455891 -0.12573189
0001c0 db 7b 60 be cf 88 1d be 03 8a 73 be a1 12 ca ba
       -0.21922247 -0.1538422 -0.23783116 -0.0015416929
0001d0 fc 25 6d bd 04 14 4a be de 6c f2 bd f5 f6 61 be
       -0.057897553 -0.19734198 -0.11837171 -0.22066863
0001e0 09 6c ad 3b 61 30 a7 be bf a7 f5 bc 36 b2 96 bc
       0.00529242 -0.32654098 -0.029987214 -0.018395524
0001f0 61 7b 34 be a1 37 5e be 4c ff d9 be 1a 49 45 be
       -0.1762519 -0.21700908 -0.4257759 -0.19266167
000200 e3 b9 16 be 9b 42 da be 38 13 32 be dc 02 4b be
       -0.14719348 -0.4262894 -0.17390144 -0.1982531
000210 f1 75 52 be db 68 a5 be 96 6f 74 be f8 49 73 be
       -0.20552804 -0.3230656 -0.23870692 -0.23758686
000220 76 8b 63 be 27 ac b2 bd 64 15 62 be c5 56 3c be
       -0.22221169 -0.08724242 -0.22078472 -0.18392475
000230 ac bd 4a be dd af e7 bb e9 b7 5a be d5 46 ad be
       -0.19798917 -0.007070525 -0.21359219 -0.33843103
000240 40 2e d6 bb cb 96 69 be 3a 65 c8 be 4f ec 75 be
       -0.006536275 -0.22811429 -0.3913973 -0.24015926
000250 b4 7b 3d be 5b c3 9a be 48 94 e7 be c3 ec a1 3c
       -0.1850422 -0.3022717 -0.45230317 0.019766217
000260 fe 3e 8d be 5a 9a d2 bd e7 f3 84 bd e0 ec 73 be
       -0.27587122 -0.102833465 -0.06491833 -0.2382083
000270 8f e3 db be 99 36 67 be a2 36 92 bc 44 45 91 be
       -0.4294705 -0.22579421 -0.017848317 -0.28373158
000280 cc 74 30 be 75 4d e4 bd 3b 93 63 be 9d c8 92 be
       -0.17232054 -0.11147586 -0.22224133 -0.2866868
000290 06 23 82 be 5d 6f 6f be b5 20 e9 bd be d4 91 be
       -0.25417346 -0.23382325 -0.113831915 -0.28482622
0002a0 e8 99 8b be f3 74 bf be d1 2f 8e be 37 7c 89 be
       -0.2726586 -0.37393913 -0.27770856 -0.2685258
0002b0 d8 4c 8b be 59 26 9f be fd 3a 52 be e8 28 e7 be
       -0.27207065 -0.31083944 -0.20530315 -0.45148396
0002c0 29 9c 0a be b5 ec 2a be 59 3b 8f be 85 36 29 be
       -0.13536133 -0.16691859 -0.27974966 -0.16524704
0002d0 96 28 71 bd 21 bc f1 bd f2 e0 a1 be 92 5e 87 be
       -0.058876596 -0.11803461 -0.31616932 -0.2643934
0002e0 48 25 28 be f7 a0 55 be f1 04 10 be a7 43 68 be
       -0.16420472 -0.20862184 -0.14064385 -0.22682057
0002f0 d8 9b 82 be 22 5e 85 bd 44 46 6d be 89 ef fe bd
       -0.25509524 -0.06512095 -0.23171335 -0.124480315
000300 6e 9c 29 c0 d7 6d 84 be a2 ac b9 3d f6 be 21 bf
       -2.6501727 -0.2586505 0.0906613 -0.6318201
000310 1f 25 62 3e a6 19 c4 3f 12 dd a4 bf 80 31 e7 bf
       0.22084473 1.5320327 -1.2879965 -1.8061981
000320 96 2d 1b be 7b 5b 33 bf 83 da 36 3c 64 40 3d bf
       -0.15154108 -0.70061463 0.011160496 -0.7392638
000330 e5 14 a8 bf 89 26 d8 bf 8a b4 56 c0 24 c9 9d bf
       -1.3131377 -1.688676 -3.3547692 -1.2327008
000340 e0 db 38 c0 7c f1 27 c0 4b 39 ec bf 2d 2a c6 bb
       -2.88842 -2.624114 -1.8454984 -0.006047508
000350 66 21 5e 3f dc 59 66 c0 b0 b2 85 bf 38 98 14 c0
       0.8676971 -3.5992346 -1.0445156 -2.3217907
000360 44 a6 03 bf b3 ab ac c0 1d 59 51 be d6 3b 8e 3f
       -0.51425576 -5.3959594 -0.2044415 1.111201
000370 39 3f 67 be 16 6e 37 c0 60 80 99 c0 ba b6 c6 be
       -0.22582711 -2.866094 -4.796921 -0.38811284
000380 cf 99 5a 3f 32 54 db c0 e4 4e 63 c0 5f a9 f1 bf
       0.85390943 -6.8540277 -3.55169 -1.8879813
000390 87 90 53 c0 9e f1 79 3e c4 28 11 c0 7a 0c 8b bf
       -3.3056962 0.24408576 -2.2681131 -1.0863183
0003a0 76 7f fd bf b7 31 6f bf 55 6e 2d c0 61 4d 53 3f
       -1.9804523 -0.93435234 -2.7098591 0.82539946
0003b0 3c d9 fc 3f 45 a4 bb 3c d4 39 86 c0 e8 c9 2c 3f
       1.9753795 0.022905478 -4.194559 0.67495584
0003c0 0d f7 1e bf 60 ba cb 3d 54 12 a1 bf 9c 9a ca 3e
       -0.6209572 0.099476576 -1.2583718 0.39571083
0003d0 27 d5 31 be 55 c9 0f be 87 cc 86 c0 03 f4 a4 be
       -0.17366467 -0.14041646 -4.2124667 -0.32217416
0003e0 32 1d 23 c0 16 fc 15 bf f4 b4 2b c0 7e a5 bf 3f
       -2.548657 -0.5858778 -2.6829195 1.4972379
0003f0 45 75 a1 c0 19 45 25 c0 7c 88 62 3e bd d9 d3 bf
       -5.045565 -2.5823424 0.22122377 -1.6550823
