layer_weight/weights17.00.npy (npy, 3152 bytes, 1 tensors)

array f4 [4, 192]
000000 49 eb 84 3f f8 e0 6f 3f 8f 44 56 3f cb d9 77 3f
       1.0384303 0.9370265 0.8369836 0.968167
000010 e6 66 65 3f f8 ed 57 3f 0d 8b 80 3f ff 43 61 3f
       0.89610136 0.84347486 1.0042435 0.8799438
000020 38 8a 67 3f e9 a6 69 3f dd dd 83 3f 62 8f 6d 3f
       0.9044528 0.9127031 1.0302082 0.9279691
000030 29 58 6c 3f ad 50 5f 3f 65 33 59 3f da c9 69 3f
       0.9232202 0.87232476 0.84844047 0.91323626
000040 77 3a 84 3f d4 0c 7f 3f 34 73 68 3f 0c 66 76 3f
       1.0330342 0.9962895 0.90800786 0.9624946
000050 b9 51 6b 3f 19 bb 7f 3f 72 b7 81 3f 79 cb 7a 3f
       0.91921574 0.99894863 1.0134108 0.97966725
000060 8f 3e 69 3f bc e4 61 3f d3 2a 72 3f 8f 20 68 3f
       0.9111108 0.88239646 0.94596595 0.9067468
000070 4b f3 69 3f d0 52 67 3f b4 c5 6e 3f 44 30 7d 3f
       0.9138686 0.90360737 0.9327042 0.9890177
000080 37 9f 83 3f ba f9 6b 3f ff 10 6c 3f bd b1 6b 3f
       1.0282964 0.9217793 0.92213434 0.9206808
000090 45 f9 6d 3f ca 4d 72 3f 23 ff 6d 3f 28 95 65 3f
       0.9295848 0.94649947 0.9296743 0.8968072
0000a0 a4 68 7a 3f a0 bb 69 3f c9 36 70 3f 0f 86 59 3f
       0.9781592 0.9130192 0.93833596 0.8497018
0000b0 4e da 5e 3f 5e 9b 6d 3f 1b a1 5b 3f c3 d2 7e 3f
       0.87051857 0.92815197 0.857927 0.99540347
0000c0 3d 74 3e 3f da 49 79 3f af d5 5c 3f 45 4b 67 3f
       0.74396116 0.97378314 0.86263555 0.9034923
0000d0 b2 d9 75 3f e8 94 80 3f e3 85 72 3f 32 28 71 3f
       0.960353 1.0045443 0.94735545 0.9420196
0000e0 f1 0d 6a 3f ce 69 63 3f 13 17 56 3f 7c 72 6c 3f
       0.9142752 0.8883332 0.8362896 0.9236219
0000f0 ca 74 69 3f 76 a5 63 3f 68 06 7f 3f b2 01 79 3f
       0.9119383 0.8892435 0.9961915 0.9726821
000100 7c 70 59 3f cd 63 72 3f da 30 80 3f 79 39 62 3f
       0.8493726 0.94683534 1.0014908 0.88368946
000110 ab c3 75 3f 62 b3 71 3f 56 2f 60 3f a8 3c 83 3f
       0.9600169 0.9441434 0.8757223 1.0252886
000120 4f 48 62 3f 83 d5 64 3f b1 b0 87 3f 08 d1 63 3f
       0.88391584 0.89388293 1.0600797 0.8899083
000130 d5 b0 69 3f 1d 44 7b 3f 77 ed 6b 3f 2e 06 70 3f
       0.9128545 0.9815081 0.9215922 0.9375943
000140 2b c8 67 3f ee bd 83 3f 78 d8 85 3f a1 c9 64 3f
       0.9053981 1.0292337 1.0456686 0.8937016
000150 bc dd 7b 3f 75 c3 58 3f 4f 25 6b 3f 97 14 76 3f
       0.98385215 0.84673244 0.91853803 0.9612517
000160 c7 34 89 3f 5b 00 6f 3f 84 82 81 3f e7 5a 5b 3f
       1.0719231 0.9335992 1.0117955 0.8568558
000170 1d cd 57 3f a5 8b 6d 3f c9 14 70 3f 16 83 85 3f
       0.84297353 0.92791206 0.93781716 1.0430629
000180 e3 f3 68 3f f0 69 83 3f 0f 7c 60 3f f8 0a 76 3f
       0.9099714 1.0266705 0.876893 0.96110487
000190 7a b6 61 3f f6 ed 71 3f b5 f0 82 3f a0 76 56 3f
       0.8816906 0.94503725 1.0229708 0.8377476
0001a0 7f b5 55 3f 43 3f 5a 3f 6b 6b 6d 3f 37 45 69 3f
       0.83480066 0.8525278 0.9274203 0.9112124
0001b0 49 42 67 3f cf 92 6a 3f bb 85 85 3f 88 42 84 3f
       0.9033552 0.9163026 1.0431436 1.0332804
0001c0 46 c1 86 3f a1 09 77 3f 7a 5a 89 3f 9b 64 73 3f
       1.0527732 0.9649907 1.0730736 0.95075387
0001d0 7e bb 5f 3f 09 90 6a 3f 22 0b 74 3f 3e 76 81 3f
       0.87395465 0.9162603 0.9532949 1.011421
0001e0 c5 d1 7a 3f 76 77 6d 3f 9f 96 6c 3f 0c 4c 71 3f
       0.9797633 0.9276041 0.9241733 0.94256663
0001f0 c9 99 6f 3f 8b 91 77 3f cb 7c 80 3f a9 9e 6c 3f
       0.9359403 0.96706456 1.0038084 0.92429596
000200 4f 98 67 3f 38 ca 7f 3f 0d 68 7f 3f bd 40 71 3f
       0.9046678 0.99917936 0.99768144 0.9423941
000210 3b fc 87 3f 8a f3 79 3f 5a 0d 7f 3f 48 7b 7a 3f
       1.062385 0.97637236 0.9962975 0.9784436
000220 46 da 75 3f a6 18 6e 3f 38 a6 73 3f 42 3e 8b 3f
       0.96036184 0.9300636 0.95175505 1.0878375
000230 fd a1 5d 3f f9 33 61 3f 54 60 6b 3f eb 1b 77 3f
       0.865753 0.8796993 0.9194386 0.96526974
000240 a4 05 6e 3f 2c b1 6e 3f 74 84 73 3f 53 75 68 3f
       0.92977357 0.9323909 0.9512398 0.9080402
000250 86 82 7a 3f db 37 5f 3f 72 77 58 3f a3 f8 83 3f
       0.9785541 0.87194604 0.8455726 1.0310253
000260 85 00 6c 3f b9 2a 86 3f 01 f1 6d 3f 67 04 84 3f
       0.9218829 1.0481788 0.9294587 1.0313843
000270 0f 6f 81 3f 7d 01 78 3f 0a 6c 80 3f fb 85 63 3f
       1.0112017 0.9687727 1.0032971 0.8887631
000280 ad dc 66 3f 52 8a 78 3f fa 63 80 3f e9 04 58 3f
       0.90180475 0.9708606 1.003051 0.8438249
000290 30 68 81 3f 92 ff 82 3f 04 27 6f 3f c8 6b 7c 3f
       1.010992 1.0234244 0.9341891 0.9860196
0002a0 45 50 73 3f 25 bf 7b 3f d2 e9 63 3f c6 67 5e 3f
       0.95044357 0.9833854 0.89028656 0.86877096
0002b0 78 99 69 3f 47 3d 75 3f e5 cf 62 3f 8d a1 80 3f
       0.912498 0.95796627 0.8859847 1.0049301
0002c0 4a 56 52 3f 4f da 7a 3f a2 f0 76 3f b6 f1 57 3f
       0.82162917 0.9798936 0.96460927 0.84353197
0002d0 10 3e 80 3f dc 72 68 3f d2 fc 68 3f 02 4a 71 3f
       1.001894 0.9080026 0.91010773 0.9425355
0002e0 62 23 6c 3f 9e 6d 63 3f 02 9d 6d 3f 6d 7a 58 3f
       0.9224149 0.8883914 0.928177 0.84561807
0002f0 9a 25 6d 3f e1 96 83 3f 8a 71 72 3f 81 be 73 3f
       0.926355 1.028042 0.94704497 0.9521256
000300 4a 43 c9 be 24 3b 8e be 4c 6f 04 bf af 6e ec be
       -0.3930915 -0.27779496 -0.51732326 -0.46178195
000310 19 2a eb be 4d e9 f5 be 28 be ba be 88 8b 01 bf
       -0.45930555 -0.48029557 -0.36473203 -0.5060353
000320 4d c9 ed be 56 4a fa be 28 58 0f bf ad 47 b4 be
       -0.46442643 -0.4888484 -0.5599389 -0.35210934
000330 c5 a8 c9 be f8 5a f1 be 65 82 e3 be b6 2a 06 bf
       -0.39386573 -0.47139716 -0.4443542 -0.5240892
000340 03 4d 09 bf 87 74 9f be 7e 76 b0 be 90 d9 09 bf
       -0.53633136 -0.3114359 -0.34465402 -0.538476
000350 4d b4 c0 be 1f a4 09 bf c3 f5 54 be fc e2 cd be
       -0.3763756 -0.53766054 -0.20796876 -0.40212238
000360 33 b7 57 be 18 ac 02 bf e5 8a c8 be 39 84 fa be
       -0.21065979 -0.51043844 -0.39168468 -0.48929003
000370 60 62 02 bf d5 0e 08 bf 9a 22 ea be 03 60 a2 be
       -0.5093136 -0.5314763 -0.45729524 -0.31713876
000380 0b 3a df be ef c0 fb be 9f 8e 27 bf 25 56 ff be
       -0.4359897 -0.49170634 -0.65452 -0.4987041
000390 ac 94 0f bf c5 72 f1 be 78 54 e1 be 57 97 e7 be
       -0.5608623 -0.47157875 -0.44009757 -0.4523265
0003a0 6f b8 9e be ed 6f d5 be cb c6 ef be 70 18 ea be
       -0.31000087 -0.41686955 -0.46831354 -0.4572177
0003b0 ae b6 01 bf 09 4e 74 be fe 6f 19 bf 20 a6 e5 be
       -0.5066937 -0.23857893 -0.5993651 -0.44853306
0003c0 e2 05 fd be 4e 88 d7 be 3e da d4 be 3d 1e e0 be
       -0.4941855 -0.4209618 -0.41572756 -0.4377307
0003d0 84 58 02 bf 0b 89 7f be 89 19 fa be 4c d5 f7 be
       -0.50916314 -0.24954621 -0.48847607 -0.4840492
0003e0 10 ad e6 be 8f 08 b8 be d8 c7 e5 be df c1 cd be
       -0.4505391 -0.3594403 -0.4487903 -0.40186974
0003f0 70 44 f2 be bf 5e da be 09 1d c8 be ce 94 a8 be
       -0.4731784 -0.4265041 -0.39084652 -0.3292603
