layer_weight/weights14.00.npy (npy, 3152 bytes, 1 tensors)

array f4 [4, 192]
000000 0d 95 4d 3f 78 16 85 3f 0c 83 6a 3f 9c 39 68 3f
       0.8030556 1.0397482 0.9160621 0.90712905
000010 43 6d 41 3f fc f7 59 3f 39 46 77 3f 85 96 63 3f
       0.75557345 0.8514402 0.96591526 0.8890155
000020 86 75 6b 3f c8 1d 6f 3f cc be 58 3f f2 63 65 3f
       0.919762 0.9340482 0.8466613 0.8960563
000030 97 0d 66 3f d9 42 71 3f f9 ed 5e 3f ce b1 80 3f
       0.89864486 0.94242626 0.8708187 1.0054262
000040 fd 53 77 3f 3b 82 59 3f 0d 1a 70 3f 19 25 5d 3f
       0.9661253 0.8496434 0.9378975 0.8638473
000050 cc 05 69 3f e4 fb 7f 3f 29 38 95 3f 16 1a 7b 3f
       0.9102447 0.9999373 1.1657764 0.9808668
000060 b8 d7 5b 3f 0e d8 2f 3f 4a 7b 73 3f 4a ba 49 3f
       0.85876036 0.6868905 0.9511 0.7879988
000070 87 29 6b 3f bb 6f 35 3f 4b 93 58 3f 1d 59 7d 3f
       0.9186024 0.7087361 0.8459975 0.989641
000080 b1 90 65 3f 71 ce 5f 3f f1 b6 41 3f d5 1a 3c 3f
       0.89673907 0.8742438 0.7566977 0.7347844
000090 45 2d 6e 3f 3e 82 6e 3f ca e0 67 3f fe 29 54 3f
       0.93037826 0.93167484 0.90577376 0.82876575
0000a0 bd e4 48 3f a3 b3 54 3f dc cb 63 3f cb 1a 48 3f
       0.78474027 0.83086604 0.8898294 0.7816588
0000b0 d5 4c 6f 3f 22 21 7b 3f 87 23 70 3f d9 89 4f 3f
       0.9347661 0.9809743 0.9380421 0.81069714
0000c0 01 5c 6b 3f 36 1d 73 3f 08 1a 52 3f ed b5 64 3f
       0.9193726 0.9496645 0.8207097 0.89340097
0000d0 e9 36 3a 3f 12 2e 81 3f 0f eb 74 3f e1 90 88 3f
       0.72740036 1.0092185 0.9567117 1.0669214
0000e0 83 f9 5d 3f f0 20 62 3f c1 f6 64 3f fe f1 6e 3f
       0.8670885 0.8833151 0.89439017 0.93338
0000f0 71 18 76 3f 20 00 58 3f 7a 87 72 3f b7 f4 5a 3f
       0.96131045 0.8437519 0.9473797 0.85529655
000100 5d 4e 7f 3f 01 97 53 3f 79 72 4d 3f db 46 70 3f
       0.9972895 0.8265229 0.80252796 0.93858117
000110 2d 4c 3a 3f 49 8e 5e 3f bd f2 68 3f 7a ae 34 3f
       0.72772485 0.8693586 0.9099539 0.7057873
000120 1e 2d 77 3f a2 f4 6e 3f 87 d0 69 3f 3f 93 68 3f
       0.9655322 0.9334203 0.9133381 0.9084968
000130 e4 74 73 3f 30 e7 4c 3f 4d 0e 6e 3f 12 a9 81 3f
       0.95100236 0.80040264 0.9299057 1.0129721
000140 28 db 34 3f d3 f3 58 3f 9b 07 82 3f b9 0d 64 3f
       0.70646906 0.84747046 1.0158571 0.8908344
000150 54 8a 58 3f fa 10 69 3f dc e5 7b 3f c1 d2 67 3f
       0.8458607 0.9104153 0.9839761 0.9055596
000160 4e ad 6e 3f 99 9c 57 3f 3c 57 6b 3f 18 c5 64 3f
       0.9323319 0.84223324 0.91929984 0.8936324
000170 98 9d 7a 3f 40 d1 4f 3f 23 1a 5b 3f c9 ec 45 3f
       0.9789672 0.81178665 0.85586756 0.7731443
000180 ee ca 57 3f 3b 22 57 3f 43 f7 68 3f 59 e5 6f 3f
       0.8429402 0.84036607 0.9100229 0.9370933
000190 e8 6f 52 3f 6e 1b 53 3f 32 e9 50 3f 17 e3 78 3f
       0.82202005 0.8246373 0.8160583 0.9722151
0001a0 1d 68 69 3f ed bc 41 3f 7e e7 63 3f ea 2a 7c 3f
       0.9117449 0.756789 0.89025104 0.9850298
0001b0 fe d9 6d 3f 4d 5e 5b 3f da 62 48 3f 09 c1 56 3f
       0.92910755 0.85690767 0.78275836 0.838883
0001c0 e3 b1 57 3f 6a 15 86 3f 5a 85 7a 3f 64 43 49 3f
       0.8425581 1.0475285 0.9785973 0.78618455
0001d0 ce 14 5c 3f b2 24 96 3f 60 be 49 3f 70 45 4b 3f
       0.85969245 1.1729949 0.78806114 0.7940283
0001e0 5c aa 7a 3f 2a f6 57 3f 22 5c 79 3f 51 85 59 3f
       0.979162 0.8435999 0.9740621 0.8496905
0001f0 8f 84 5a 3f db 10 75 3f b8 b6 65 3f 54 24 6d 3f
       0.8535852 0.95728844 0.8973193 0.9263356
000200 2c 6c 43 3f 61 48 98 3f fc 42 6e 3f 1e 89 58 3f
       0.7633693 1.1897088 0.9307096 0.84584224
000210 ba dd 5d 3f cf 4a 6d 3f 59 b6 67 3f 52 3c 66 3f
       0.8666645 0.92692274 0.90512615 0.8993579
000220 10 3f 5d 3f 40 cc 54 3f 43 df 87 3f 76 d2 86 3f
       0.8642435 0.8312416 1.0615009 1.0532978
000230 81 34 5f 3f d9 bb 52 3f 0b 46 83 3f 30 26 51 3f
       0.8718949 0.8231788 1.025575 0.81698895
000240 9c a7 67 3f 22 07 58 3f 51 19 55 3f b8 3c 6c 3f
       0.90490127 0.84385884 0.83241755 0.9228015
000250 16 99 6a 3f 2a fb 83 3f 95 d4 5b 3f f6 55 69 3f
       0.9163984 1.0311024 0.8587125 0.9114679
000260 35 3a 5d 3f ff b8 56 3f 80 b6 8d 3f 25 28 87 3f
       0.8641694 0.8387603 1.107132 1.0559126
000270 01 55 50 3f a3 2d 4a 3f d4 6c 56 3f e6 6b 74 3f
       0.81379706 0.78975886 0.8375981 0.9547714
000280 a6 da 5d 3f 3c 71 72 3f d9 c6 60 3f 2a 37 6c 3f
       0.86661756 0.9470403 0.8780342 0.92271674
000290 4e 2c 87 3f 35 a8 88 3f 97 85 46 3f af 69 73 3f
       1.0560396 1.0676333 0.7754759 0.95083135
0002a0 e2 be 62 3f 4b 10 58 3f 82 51 81 3f 20 d6 55 3f
       0.88572514 0.8439986 1.0102999 0.83529854
0002b0 e8 87 6a 3f 12 10 6a 3f c5 2e 5f 3f 2e c3 6b 3f
       0.91613626 0.9143077 0.8718074 0.92094696
0002c0 cf 75 4c 3f d0 43 52 3f bb 42 8e 3f 5b b0 58 3f
       0.7986726 0.82134724 1.1114115 0.846441
0002d0 d1 0b 6c 3f fb 3c 73 3f bd cd 4c 3f 91 c0 70 3f
       0.9220553 0.95014924 0.8000143 0.94043833
0002e0 b1 f9 70 3f a5 0c 7a 3f 72 45 6b 3f a5 0f 6a 3f
       0.94131 0.97675544 0.9190284 0.9143012
0002f0 8e d5 4c 3f 65 25 6a 3f 77 5d 7f 3f 2a 4d 66 3f
       0.8001336 0.9146331 0.9975199 0.89961493
000300 c2 e8 13 bf a3 4b f2 be 76 fa fc be 0f f1 20 bf
       -0.57777035 -0.4732333 -0.49409837 -0.62867826
000310 8b 9c 23 bf 45 3f ec be e7 38 04 bf b3 54 18 bf
       -0.6391074 -0.4614202 -0.51649326 -0.5950424
000320 d2 f0 1d bf 75 59 db be f4 56 40 bf 81 1b 09 bf
       -0.6169559 -0.42841688 -0.7513268 -0.5355759
000330 75 4a 11 bf eb 9f 21 bf eb 51 07 bf 77 5a e6 be
       -0.5675424 -0.6313464 -0.5285937 -0.44990894
000340 74 8a 0a bf 35 52 10 bf 9b 14 17 bf ae 43 1d bf
       -0.5411751 -0.5637544 -0.59015816 -0.61431396
000350 a1 d2 13 bf 50 24 fc be 73 12 31 bf 1f 77 c8 be
       -0.5774327 -0.49246454 -0.69168776 -0.39153382
000360 6a d8 f2 be dd e5 1b bf 3e 8a 1e bf c9 ee 24 bf
       -0.47430736 -0.6089762 -0.6192969 -0.6442686
000370 25 69 0e bf 3a 4d 16 bf 29 71 04 bf 24 3f a8 be
       -0.5562919 -0.5871159 -0.5173517 -0.32860672
000380 4c eb f4 be 59 4b 0f bf 38 bd cb be 48 b6 d4 be
       -0.47835767 -0.55974346 -0.397928 -0.4154532
000390 26 3b d2 be c1 9b fb be f4 f8 0b bf d7 a3 d2 be
       -0.41060752 -0.49142268 -0.5467675 -0.41140625
0003a0 28 e2 ff be 7b 7e 0b bf fd d0 e1 be 94 8e 01 bf
       -0.4997723 -0.5448987 -0.44104758 -0.5060818
0003b0 b0 a9 ff be eb 8d d1 be d4 14 f4 be 0e e9 de be
       -0.4993415 -0.40928587 -0.4767214 -0.43537182
0003c0 38 8e 1f bf 89 68 2b bf e0 3a 0e bf 4d ea 19 bf
       -0.62326384 -0.66956383 -0.55558586 -0.6012314
0003d0 8b 4e 1e bf 63 b9 ea be 65 bd e8 be ab 77 2b bf
       -0.618386 -0.45844564 -0.45456997 -0.66979474
0003e0 7a 39 fe be f5 9c ea be 41 06 09 bf 92 ef 0c bf
       -0.49653226 -0.45822874 -0.5352517 -0.55053055
0003f0 63 a7 06 bf d1 13 f0 be b8 e3 1d bf de 2b b2 be
       -0.5259916 -0.4689012 -0.61675596 -0.34799093
