layer_weight/weights1.00.npy (npy, 1616 bytes, 1 tensors)

array f4 [4, 96]
0.8521902 0.98358995 1.1831493 0.9324343 0.667901 1.1784519 0.9620573 0.8366159
0.82616544 0.93006974 1.1684438 0.7081196 1.0164317 0.8862891 0.926344 1.1171241
1.02802 1.0753212 0.9264697 0.79842824 0.7924301 0.9562009 1.0984793 1.2394745
1.1719302 0.9321355 1.0152234 0.8328632 0.86397237 1.2489679 0.8486294 0.8503948
1.0081856 0.9009517 1.2530252 0.917771 0.6574814 0.9989743 0.90046215 0.6664472
1.0045767 1.0132443 1.0418478 1.1584041 1.1321206 0.9363005 0.8877736 0.6418418
0.9806359 0.8120431 1.0048631 0.9986006 1.0285738 0.96716034 1.2561146 1.0919098
0.8612539 0.8297742 0.9642043 1.1131353 1.0388348 1.0710025 1.2383496 0.88650453
0.9394481 1.1464797 0.81226295 0.7701007 0.8593158 0.79646844 1.026433 0.9270003
0.9600084 0.9820466 0.8035961 0.858403 0.8421436 1.084174 1.0035264 1.0526352
0.59400845 0.87565774 1.0262479 0.75293356 1.1236153 1.044415 1.0341402 1.0550292
0.9299491 0.8953766 0.77855426 0.98887575 0.9479989 0.98614293 0.81673974 0.86451143
0.09516601 0.037143216 -0.24934773 -0.24555233 -0.29047883 -0.014632444 -0.36627525 -0.33401567
-0.28520164 -0.36209333 0.14761798 -0.009204301 -0.28336915 -0.14379899 -0.25337768 -0.32185805
0.015589341 -0.35903978 -0.020902846 -0.11330901 -0.30364951 -0.101281576 -0.15399472 -0.26772407
-0.43449324 -0.14510225 -0.20833561 -0.16591318 -0.09486712 -0.32034698 -0.099985875 -0.23352928
-0.17541541 -0.05143633 -0.40189257 -0.15422262 -0.41700923 -0.32329622 -0.19046682 -0.23385648
-0.2523695 -0.15247497 -0.056704745 -0.027947864 -0.36551744 -0.21285915 -0.18718536 -0.33963847
-0.31216195 -0.15731683 -0.11991395 -0.26324636 -0.3307929 -0.19613613 -0.30331957 -0.07982543
-0.54223424 -0.22820012 -0.28872436 -0.20896104 0.0057236897 -0.10030155 -0.34493485 -0.23395778
-0.37971163 -0.07961096 -0.3155187 -0.28921893 -0.20134127 -0.22482982 -0.24095815 -0.23458402
-0.22389518 -0.32605445 -0.13614282 -0.35169855 -0.10587389 0.022903753 -0.34505185 0.03630534
-0.40248287 -0.41599286 -0.14959703 -0.31288236 -0.31621656 -0.18085729 -0.09520533 -0.012752851
-0.19689879 -0.26823792 -0.15416883 -0.004597838 -0.08014152 -0.3604284 -0.15712948 -0.12810804
-0.13465226 0.052248012 -0.10633547 -0.12582958 0.02651455 -0.10353567 -0.010830856 0.051425155
-0.10120089 0.014508195 -0.14686635 -0.021592198 0.13393888 0.045769893 -0.057754803 0.068587676
0.005804711 -0.06193705 -0.027914796 0.007150222 0.08050779 0.04389256 -0.25833008 0.030214451
0.014284107 -0.16257122 -0.021659406 -0.07833423 -0.07845433 -0.046992112 -0.10594572 -0.056292865
0.013894167 0.22878115 -0.094889306 0.020786522 -0.032490592 -0.31742364 -0.06762563 0.06643844
-0.03093088 -0.04433198 -0.21150045 -0.09942869 -0.16300851 0.16059794 -0.03968596 -0.09234634
-0.15805732 -0.025134139 -0.108203165 -0.2374801 0.03201249 0.091429114 -0.030214319 -0.1856017
0.11473656 0.041822456 -0.1964282 0.093864515 -0.06837396 -0.17409994 -0.013964079 -0.17015481
00000000: 2329 5a3f 8dcc 7b3f 7071 973f 04b4 6e3f
00000010: 8ffb 2a3f 83d7 963f 6349 763f 762c 563f
00000020: 947f 533f 0d19 6e3f 918f 953f 5347 353f
00000030: 6f1a 823f d8e3 623f e124 6d3f ecfd 8e3f
00000040: 2996 833f 20a4 893f 1e2d 6d3f cb65 4c3f
00000050: b3dc 4a3f 95c9 743f f89a 8c3f 1aa7 9e3f
00000060: cf01 963f 6fa0 6e3f d7f2 813f 8636 553f
00000070: 4b2d 5d3f 2ede 9f3f c73f 593f 79b3 593f
00000080: 3a0c 813f c5a4 663f 2163 a03f 0af3 6a3f
00000090: b350 283f c8bc 7f3f b084 663f 499c 2a3f
000000a0: f895 803f fdb1 813f 455b 853f 9646 943f
000000b0: 54e9 903f 64b1 6f3f 2145 633f bf4f 243f
000000c0: f40a 7b3f 0ee2 4f3f 5b9f 803f 4aa4 7f3f
000000d0: 4ea8 833f d297 773f 5dc8 a03f b3c3 8b3f
000000e0: 237b 5c3f 156c 543f 18d6 763f 387b 8e3f
000000f0: 8af8 843f 9c16 893f 3d82 9e3f f6f1 623f
00000100: ac7f 703f d9bf 923f 77f0 4f3f 5225 453f
00000110: 1ffc 5b3f 5be5 4b3f 2862 833f e44f 6d3f
00000120: 1cc3 753f 6867 7b3f 79b8 4d3f 4dc0 5b3f
00000130: b996 573f 37c6 8a3f 8e73 803f c0bc 863f
00000140: f010 183f 1b2b 603f 175c 833f 41c0 403f
00000150: a0d2 8f3f 64af 853f b55e 843f 320b 873f
00000160: 2511 6e3f 6737 653f 554f 473f f626 7d3f
00000170: 0eb0 723f dd73 7c3f db15 513f 9f50 5d3f
00000180: 66e6 c23d 7c23 183d 0355 7fbe 1272 7bbe
00000190: a4b9 94be ebbc 6fbc 6e88 bbbe 1a04 abbe
000001a0: f305 92be 4c64 b9be 2b29 173e a3cd 16bc
000001b0: c315 91be 0b40 13be b8ba 81be 94ca a4be
000001c0: 6f6a 7f3c 10d4 b7be 723c abbc 8e0e e8bd
000001d0: f377 9bbe b76c cfbd cbb0 1dbe 2113 89be
000001e0: e675 debe af95 14be ee55 55be 25e5 29be
000001f0: b149 c2bd 8504 a4be 65c5 ccbd 4d22 6fbe
00000200: 19a0 33be e7ae 52bd ddc4 cdbe 89ec 1dbe
00000210: 3c82 d5be 1587 a5be bc09 43be 1378 6fbe
00000220: 9336 81be 6622 1cbe 3c43 68bd ebf2 e4bc
00000230: 1a25 bbbe c0f7 59be 85ad 3fbe 18e5 adbe
00000240: b1d3 9fbe aa17 21be 7295 f5bd 3ac8 86be
00000250: b05d a9be e9d7 48be b44c 9bbe 847b a3bd
00000260: ddcf 0abf 4bad 69be aed3 93be e2f9 55be
00000270: ca8d bb3b e66a cdbd 4d9b b0be a192 6fbe
00000280: 9069 c2be 120b a3bd ab8b a1be 8114 94be
00000290: 682c 4ebe ca39 66be bcbd 76be cb36 70be
000002a0: c744 65be 9cf0 a6be 0669 0bbe d511 b4be
000002b0: 69d4 d8bd a7a0 bb3c a3aa b0be e8b4 143d
000002c0: 3c12 cebe 04fd d4be f72f 19be 1e32 a0be
000002d0: 23e7 a1be a732 39be 03fb c2bd 55f1 50bc
000002e0: d69f 49be 7b56 89be 6fde 1dbe 76a9 96bb
000002f0: 3d21 a4bd 128a b8be 8de6 20be c12e 03be
00000300: 48e2 09be 0302 563d 69c6 d9bd 78d9 00be
00000310: 0b35 d93c 820a d4bd e773 31bc 2fa3 523d
00000320: 6a42 cfbd c8b3 6d3c 2264 16be 1fe2 b0bc
00000330: 4627 093e 3679 3b3d 4d90 6cbd b277 8c3d
00000340: 7235 be3b b4b1 7dbd 92ad e4bc 694c ea3b
00000350: 45e1 a43d afc8 333d d743 84be 4c84 f73c
00000360: e307 6a3c 1279 26be 116f b1bc b26d a0bd
00000370: aaac a0bd cd7a 40bd 12fa d8bd 5993 66bd
00000380: 5ca4 633c 9b45 6a3e 5355 c2bd 7f48 aa3c
00000390: db14 05bd 5a85 a2be 4e7f 8abd e010 883d
000003a0: c262 fdbc 7395 35bd 9393 58be 45a1 cbbd
000003b0: b4eb 26be c973 243e bf8d 22bd 1420 bdbd
000003c0: c7d9 21be 1ce6 cdbc 9f99 ddbd fc2d 73be
000003d0: 871f 033d 303f bb3d 0584 f7bc 5f0e 3ebe
000003e0: 00fb ea3d 064e 2b3d 7924 49be 0a3c c03d
000003f0: a607 8cbd 4147 32be 98c9 64bc 103d 2ebe
