layer_weight/weights21.00.npy (npy, 3152 bytes, 1 tensors)

array f4 [4, 192]
0	0x3f756ef0	0.958724
1	0x3f7c4e7e	0.9855727
2	0x3f6ce8e5	0.9254287
3	0x3f5dea27	0.86685413
4	0x3f5ac595	0.85457736
5	0x3f556d16	0.83369577
6	0x3f671fe7	0.90283054
7	0x3f60574c	0.87633204
8	0x3f786c77	0.97040504
9	0x3f750729	0.9571405
10	0x3f76be94	0.9638455
11	0x3f746c60	0.9547787
12	0x3f853c28	1.0408983
13	0x3f822ec9	1.0170528
14	0x3f538d26	0.8263725
15	0x3f849ac0	1.0359726
16	0x3f735693	0.95053977
17	0x3f76af63	0.9636137
18	0x3f6b0ffd	0.9182127
19	0x3f6e56dd	0.9310129
20	0x3f6dfa9f	0.9296054
21	0x3f7fc9ad	0.9991711
22	0x3f8b1634	1.0866151
23	0x3f718dc6	0.94356954
24	0x3f677553	0.904134
25	0x3f8158d4	1.0105233
26	0x3f776ef4	0.96653676
27	0x3f8b42e6	1.0879791
28	0x3f8535ef	1.0407084
29	0x3f8787c1	1.0588304
30	0x3f63e3ce	0.8901948
31	0x3f524ba1	0.8214665
32	0x3f7906ef	0.97276205
33	0x3f72e701	0.94883734
34	0x3f626fd0	0.8845186
35	0x3f82757c	1.0192103
36	0x3f7db562	0.99104893
37	0x3f7f9b0b	0.9984595
38	0x3f7155ed	0.9427174
39	0x3f54d535	0.8313783
40	0x3f811d59	1.0087081
41	0x3f7dff7d	0.9921797
42	0x3f6b6eb9	0.91965824
43	0x3f6d891f	0.92787355
44	0x3f7455b3	0.95443267
45	0x3f7660b6	0.9624132
46	0x3f712b1a	0.9420639
47	0x3f71d7a2	0.94469655
48	0x3f794aad	0.9737957
49	0x3f719354	0.9436543
50	0x3f87aa81	1.0598909
51	0x3f5e017f	0.8672103
52	0x3f7538d0	0.95789814
53	0x3f56b1f8	0.8386531
54	0x3f79f762	0.976431
55	0x3f8c3422	1.095341
56	0x3f73a5cf	0.9517488
57	0x3f816212	1.0108054
58	0x3f670db0	0.9025526
59	0x3f794cca	0.97382796
60	0x3f79f565	0.9764007
61	0x3f7c4684	0.985451
62	0x3f8eeff7	1.1166981
63	0x3f88d9f0	1.0691509
64	0x3f64d056	0.89380395
65	0x3f7da3fa	0.99078333
66	0x3f7e309c	0.9929292
67	0x3f822ef3	1.0170578
68	0x3f603d7c	0.8759382
69	0x3f521916	0.8206953
70	0x3f6d2f1d	0.92650014
71	0x3f83a8f5	1.0285937
72	0x3f644c56	0.8917898
73	0x3f6ae145	0.91749984
74	0x3f7a91c5	0.97878677
75	0x3f6a5c8b	0.9154746
76	0x3f83bbe2	1.0291712
77	0x3f71fd35	0.9452699
78	0x3f808f26	1.0043685
79	0x3f70450c	0.9385536
80	0x3f64ba29	0.8934656
81	0x3f8201fa	1.0156853
82	0x3f7748a2	0.96595204
83	0x3f723ce1	0.94624144
84	0x3f732b8b	0.94988316
85	0x3f43f0ce	0.76539314
86	0x3f7cd9c8	0.9876981
87	0x3f751444	0.9573405
88	0x3f8971b7	1.0737828
89	0x3f75f1bf	0.96072
90	0x3f68a329	0.9087396
91	0x3f66d7e0	0.9017315
92	0x3f87c3c9	1.0606624
93	0x3f67a85a	0.9049126
94	0x3f7a4339	0.97758824
95	0x3f68e37e	0.90972126
96	0x3f819672	1.0124037
97	0x3f716f04	0.9431002
98	0x3f739ff0	0.9516592
99	0x3f87b5d7	1.0602368
100	0x3f649307	0.89286846
101	0x3f77b720	0.967638
102	0x3f7d35b8	0.98910093
103	0x3f7ace9b	0.97971505
104	0x3f86a42c	1.0518851
105	0x3f6df544	0.9295237
106	0x3f87eafa	1.0618584
107	0x3f74c69a	0.9561554
108	0x3f731b81	0.9496384
109	0x3f870875	1.0549456
110	0x3f893070	1.0717907
111	0x3f7de9fd	0.9918516
112	0x3f767526	0.96272504
113	0x3f7a3d31	0.9774962
114	0x3f8ddce7	1.1083039
115	0x3f7581ad	0.95900995
116	0x3f7cad87	0.9870228
117	0x3f82018f	1.0156726
118	0x3f715893	0.9427578
119	0x3f61dd0c	0.88227916
120	0x3f7c1190	0.984643
121	0x3f76b099	0.96363217
122	0x3f71768e	0.94321525
123	0x3f53e7db	0.8277566
124	0x3f61eed9	0.8825508
125	0x3f74d9eb	0.95645016
126	0x3f76eb25	0.9645255
127	0x3f826b93	1.0189079
128	0x3f821a10	1.0164204
129	0x3f7b3788	0.9813161
130	0x3f574644	0.8409159
131	0x3f746f3b	0.95482224
132	0x3f842422	1.0323527
133	0x3f763e83	0.96189135
134	0x3f78d4d6	0.9719976
135	0x3f78e1dd	0.9721964
136	0x3f56a70c	0.83848643
137	0x3f816d5d	1.01115
138	0x3f6beedf	0.92161363
139	0x3f86dbd9	1.0535842
140	0x3f8447be	1.0334394
141	0x3f6f3955	0.93446857
142	0x3f835b8d	1.0262314
143	0x3f6d80d4	0.927747
144	0x3f734db3	0.95040435
145	0x3f73aa1a	0.9518143
146	0x3f821c06	1.0164802
147	0x3f7cda81	0.9877091
148	0x3f7e4296	0.9932035
149	0x3f7d34b1	0.98908526
150	0x3f80cc96	1.0062435
151	0x3f7103fe	0.94146717
152	0x3f7399d4	0.951566
153	0x3f73d77f	0.95250696
154	0x3f82090c	1.0159011
155	0x3f7c9639	0.9866672
156	0x3f82af55	1.0209757
157	0x3f83edb1	1.0306913
158	0x3f6f14a3	0.93390864
159	0x3f7072f7	0.9392542
160	0x3f7f6ab3	0.99772185
161	0x3f6df6d5	0.9295476
162	0x3f684a59	0.90738446
163	0x3f656ca3	0.8961889
164	0x3f815c6d	1.0106331
165	0x3f71c4cb	0.9444091
166	0x3f673376	0.903129
167	0x3f8427b5	1.0324618
168	0x3f744b86	0.9542774
169	0x3f8142f0	1.0098553
170	0x3f740e1e	0.9533404
171	0x3f7f8acf	0.9982118
172	0x3f788d0b	0.97090214
173	0x3f882b98	1.0638304
174	0x3f824eb4	1.0180268
175	0x3f751720	0.9573841
176	0x3f620ca3	0.8830053
177	0x3f66f9e1	0.90225035
178	0x3f6c0937	0.9220156
179	0x3f7e2aa4	0.99283814
180	0x3f74da09	0.95645195
181	0x3f7440e8	0.9541154
182	0x3f620104	0.882828
183	0x3f8c47fa	1.0959466
184	0x3f7bf6f6	0.9842371
185	0x3f63a90d	0.88929826
186	0x3f76061e	0.96103084
187	0x3f6e452e	0.9307431
188	0x3f91a4de	1.1378438
189	0x3f837e72	1.0272963
190	0x3f87c8ae	1.0608118
191	0x3f6b7e5a	0.9198967
192	0xbed27b34	-0.41109622
193	0xbf07cbe4	-0.5304549
194	0xbecc1989	-0.39863232
195	0xbec7111d	-0.38880244
196	0xbec366ca	-0.3816436
197	0xbeb3f1d8	-0.3514545
198	0xbeb9a27a	-0.36256772
199	0xbe5c5fef	-0.21520971
200	0xbed8bc9b	-0.42331395
201	0xbf075e2b	-0.52878064
202	0xbed26dde	-0.41099447
203	0xbef17a59	-0.47163656
204	0xbeb29a40	-0.34883308
205	0xbee9e9c1	-0.45686153
206	0xbeb6c8e1	-0.35700133
207	0xbee5f8aa	-0.44916278
208	0xbe7415d5	-0.23836453
209	0xbeab7f57	-0.3349559
210	0xbeb58e3a	-0.35460073
211	0xbea80399	-0.32815245
212	0xbea4d855	-0.32196298
213	0xbe6fcec6	-0.23418722
214	0xbe8cdafb	-0.2751082
215	0xbecec7a5	-0.40386692
216	0xbe9a32fb	-0.3011702
217	0xbea270b9	-0.31726626
218	0xbedd11f4	-0.4317776
219	0xbe227ce6	-0.15867957
220	0xbeb173f0	-0.34658766
221	0xbeb6aee5	-0.3568031
222	0xbeb0f4a1	-0.34561637
223	0xbeb2ec7c	-0.34946048
224	0xbe44ee1c	-0.19231457
225	0xbead9347	-0.33901426
226	0xbecd3de1	-0.40086272
227	0xbe8ecacd	-0.278891
228	0xbee22107	-0.44165823
229	0xbed8af86	-0.42321414
230	0xbeb9dcc4	-0.36301243
231	0xbefca8b2	-0.49347454
232	0xbea5b1cc	-0.3236221
233	0xbeb37729	-0.3505185
234	0xbeac89ca	-0.33698875
235	0xbea1c150	-0.31592798
236	0xbec37b79	-0.3818014
237	0xbea23cf0	-0.31687117
238	0xbeba1e81	-0.36351398
239	0xbe95f9f9	-0.29292277
240	0xbecdc561	-0.4018965
241	0xbe79ee67	-0.2440735
242	0xbe82614d	-0.2546486
243	0xbef66c7d	-0.48129645
244	0xbedd2d6a	-0.4319871
245	0xbec64997	-0.3872802
246	0xbe7b50a1	-0.24542476
247	0xbe84d0d3	-0.2594057
248	0xbed13741	-0.40862468
249	0xbe950cd7	-0.2911136
250	0xbee86e66	-0.45396727
251	0xbebdd37a	-0.37075406
252	0xbebbffa7	-0.36718485
253	0xbebefae2	-0.37300783
254	0xbec0b06c	-0.376346
255	0xbe67d2b5	-0.22638972
