layer_weight/weights27.00.npy (npy, 560 bytes, 1 tensors)

array f4 [4, 30]
00000000: 43c0 883f d1c1 833f dafb a73f e04a 973f
00000010: 74f6 9a3f 7c04 853f f456 833f e33f 863f
00000020: 078b 823f 8154 8a3f e657 943f d36d 9b3f
00000030: fb28 ba3f a7be b63f 9698 c43f e5b5 a93f
00000040: 8fee aa3f 80f9 ba3f 4262 a93f f64a ba3f
00000050: a2aa 9c3f 75a5 8a3f c600 b33f 81bf a13f
00000060: 6001 653f 6cc2 973f 4eba 893f b37b 893f
00000070: 3306 a73f 8fe9 a33f 2a2a a1be 5e1d c5be
00000080: f8df 94be b2a0 b9be 726a 95be 5061 c5be
00000090: f9f3 e3be b1a5 d2be 7e46 ccbe 1792 cdbe
000000a0: 1bb0 4abe d54a 3ebd fecd 96bd 1e30 97bd
000000b0: cc4e 6cbd bd77 1bbe a824 01be 9c9a e4bd
000000c0: 816c 363d 677b c3bd c765 c1bd 38ef 32be
000000d0: 936e adbd 7bbf a6bd 2250 a2be dbac 8ebd
000000e0: 2eec 42be 6784 51be a342 62bc 549b 12bd
000000f0: f27b 0dbe 112a c53d bf69 523e 5865 4f3d
00000100: 3b39 813d 5deb 2dbf 15e0 a13d 4b08 1e3e
00000110: 1119 dfbe ed32 ed3e c96d 1cbf 5df4 e0be
00000120: 41f7 16bf a2dd a5be 6849 343f 7cf6 8bbf
00000130: bcab c1bd 2dac 5ebe d941 d2be 7dbb 20be
00000140: a1bd 8fbf 2e7b 2dbf 4972 78bf e33c 9ebf
00000150: 4249 7dbf 53bd 36bf 6edb 45bf 8c5e 95bf
00000160: caab 7cbf 4610 e7be 315b d73f 9217 d93f
00000170: 262b bc3f 2d35 f83f 4429 d23f 0594 e83f
00000180: 9af3 cb3f 1354 d73f 1425 c03f 49fb b93f
00000190: ed25 0c40 081a bb3f 3557 0940 a61f e03f
000001a0: aa82 1540 8f55 f13f 683d 1540 acd3 1a40
000001b0: 047a e23f 91da fa3f 7718 d93f 3fc8 e03f
000001c0: 521c cb3f c3c2 e73f f125 bf3f 2529 e83f
000001d0: c103 d73f cac7 c43f f7e1 b43f b48e da3f
1.0683674 1.0293523 1.3123734 1.1819725 1.2106462 1.0391994 1.0260911 1.0488247
1.0198678 1.0807039 1.1589324 1.2142891 1.4543756 1.4276932 1.5359066 1.3258635
1.3354052 1.4607391 1.3233111 1.4554126 1.2239573 1.0831743 1.3984611 1.2636567
0.89455223 1.1856208 1.0759981 1.0740875 1.3048767 1.2805651 -0.3147748 -0.38498968
-0.29077125 -0.36255413 -0.29182774 -0.38550806 -0.44522074 -0.41142038 -0.3989753 -0.4015052
-0.19793741 -0.046458084 -0.07363509 -0.073822245 -0.057692334 -0.15182395 -0.1261164 -0.11162302
0.04453707 -0.095450215 -0.094432406 -0.17474067 -0.08468356 -0.08141991 -0.3170176 -0.06966563
-0.19035408 -0.20460664 -0.013809833 -0.035792664 -0.13816813 0.09627164 0.20548151 0.05063376
0.06309744 -0.6793726 0.079040684 0.15432851 -0.43573812 0.46327916 -0.6110502 -0.43936434
-0.5897103 -0.32395655 0.7042451 -1.0934596 -0.09456584 -0.21745367 -0.41065863 -0.15696521
-1.1229745 -0.6776608 -0.97049385 -1.2362331 -0.9893991 -0.71382636 -0.7728795 -1.1669478
-0.9869963 -0.45129603 1.6824704 1.6960318 1.4700668 1.9391228 1.6418843 1.8170172
1.5933716 1.6822532 1.5011315 1.4529811 2.1898148 1.4617319 2.1459477 1.7509658
2.3361 1.8854235 2.331873 2.4191694 1.7693486 1.9597951 1.6960591 1.756111
1.5868018 1.8106312 1.4933454 1.8137556 1.6798021 1.5373471 1.4131459 1.70748
