layer_weight/weights4.00.npy (npy, 1616 bytes, 1 tensors)

array f4 [4, 96]
000000 f4 08 89 3f 42 75 5f 3f c5 06 85 3f 4f 4d 83 3f
       1.0705857 0.87288296 1.0392691 1.0257968
000010 15 50 66 3f 7f 63 9c 3f 6c 3c 80 3f cb 98 88 3f
       0.89965945 1.2217864 1.0018439 1.0671629
000020 3d 93 73 3f 22 91 76 3f 74 f5 7c 3f 7f 29 81 3f
       0.9514654 0.96315205 0.9881203 1.0090789
000030 9e 7a a6 3f 62 c1 80 3f fa 2d 95 3f 70 42 6f 3f
       1.300617 1.0059016 1.1654656 0.9346075
000040 1e 7a 56 3f eb da 9b 3f d9 2e 7d 3f ba 84 6e 3f
       0.83780086 1.2176183 0.9889961 0.93171275
000050 df 31 3b 3f 30 e4 85 3f 18 a9 88 3f cf 58 80 3f
       0.7312297 1.0460262 1.0676603 1.0027102
000060 7b c5 83 3f 72 b0 89 3f 93 f8 83 3f 4c e7 3f 3f
       1.0294641 1.0756972 1.0310234 0.74962306
000070 74 a3 5e 3f 06 e6 8b 3f 5b 40 60 3f 2a 7f 38 3f
       0.8696816 1.0929573 0.875982 0.72069037
000080 ad e6 70 3f 54 31 5b 3f 54 0d 88 3f 34 83 65 3f
       0.94101983 0.85622144 1.0629067 0.89653325
000090 08 0b 56 3f 2d 80 91 3f f2 2a 95 3f fb 69 8d 3f
       0.8361058 1.1367241 1.1653731 1.1047968
0000a0 94 c9 6f 3f 8a 96 7f 3f 91 7f 62 3f 71 14 4e 3f
       0.9366696 0.9983908 0.884759 0.8049994
0000b0 de da 50 3f 56 b4 6b 3f d7 78 68 3f 18 20 6e 3f
       0.81583965 0.92072046 0.90809387 0.9301772
0000c0 41 ec 62 3f 08 6c 7b 3f ba 82 8f 3f 84 5f 72 3f
       0.88641745 0.9821172 1.121177 0.94676995
0000d0 98 07 83 3f 8b f6 8d 3f 0e 9d 5d 3f b3 2f 7a 3f
       1.0236692 1.1090864 0.8656777 0.97729033
0000e0 5f 75 63 3f 69 40 91 3f 03 7c 6b 3f 86 de 7a 3f
       0.8885097 1.1347781 0.919861 0.97995794
0000f0 05 a3 69 3f a4 14 74 3f 9c 82 54 3f 13 d2 75 3f
       0.91264373 0.95343995 0.83011794 0.9602367
000100 48 5e 5b 3f 2a 36 80 3f 6e 5c 48 3f b0 e3 75 3f
       0.85690737 1.001653 0.78266037 0.9605055
000110 97 94 86 3f 00 ed 8c 3f bb df 38 3f e4 4b 6c 3f
       1.0514096 1.1009827 0.72216386 0.923033
000120 c2 a0 7d 3f 7f 81 4d 3f e6 b2 96 3f 19 aa 46 3f
       0.9907342 0.8027572 1.1773345 0.776033
000130 c7 ae 80 3f ba 72 8b 3f 45 30 6a 3f 53 43 8e 3f
       1.0053338 1.0894387 0.91479903 1.1114296
000140 e4 ab 4d 3f a9 11 47 3f bb df 80 3f c3 1b 93 3f
       0.8034041 0.7776132 1.0068277 1.1492847
000150 da 43 66 3f b1 7c 6f 3f b4 c0 7f 3f f1 cf 86 3f
       0.89947283 0.9354964 0.99903417 1.0532209
000160 20 dd 97 3f ff 60 87 3f 1f d6 7f 3f 2c 0e 61 3f
       1.1864357 1.0576476 0.999361 0.8791225
000170 c6 e9 32 3f d2 14 81 3f d6 c4 7e 3f ab 87 95 3f
       0.6988796 1.0084479 0.995191 1.1682028
000180 f1 e4 d0 be bf b1 7a be a4 06 cc be 0a 85 69 be
       -0.40799668 -0.24481867 -0.39848816 -0.22804657
000190 f8 26 8d be 90 de c6 bd b3 3b 79 be aa 0a d9 be
       -0.27568793 -0.09710419 -0.2433918 -0.4239095
0001a0 2c f7 b5 be ae 12 6a be 15 5a b4 be 63 bf 4f be
       -0.3554014 -0.22858688 -0.35224977 -0.20287852
0001b0 fb 88 eb be b0 04 72 be e4 dc eb bd a4 b3 52 be
       -0.46002945 -0.236346 -0.11516741 -0.2057634
0001c0 1f f7 80 be 36 30 17 be fb 88 46 be e2 97 22 be
       -0.25188538 -0.14764485 -0.19388191 -0.15878251
0001d0 e6 fa 8c be ca 2c 89 be a1 fe 8f be e8 7a cb be
       -0.2753517 -0.26791984 -0.28123954 -0.39742208
0001e0 37 9b f5 bd 3c 4b 7b bd c9 fd db be 07 1a 3f be
       -0.119924955 -0.061351046 -0.4296706 -0.18662272
0001f0 cb 8d 85 be 19 c8 d2 be 55 1c 22 be 64 22 ad be
       -0.26084742 -0.41168287 -0.1583112 -0.338153
000200 57 97 c6 be b9 9b 79 be 43 09 04 be b7 79 a2 be
       -0.38787338 -0.2437581 -0.12894158 -0.31733486
000210 99 48 2e be 89 6f c5 bd 93 6d e6 bd 37 d9 cf bd
       -0.17019881 -0.09640414 -0.112513684 -0.10148852
000220 51 26 9f be b9 37 41 be bf 9f ad be 6d a9 90 be
       -0.3108392 -0.18868913 -0.3391094 -0.28254262
000230 db 23 aa be 01 d4 8e be d8 21 90 be e2 70 d9 be
       -0.3323048 -0.2789612 -0.2815082 -0.42468935
000240 ad a5 4e be 13 f4 8a be fc 60 9e be a5 b1 3b be
       -0.20180388 -0.2713934 -0.30933368 -0.18329485
000250 24 0a 43 be 8d f2 8a be 0e 78 5a be 2c 4c 1a bf
       -0.19046837 -0.27138177 -0.2133486 -0.6027248
000260 14 d7 cf be 37 1f 21 be a8 2e b4 be 91 78 9d be
       -0.4059378 -0.15734564 -0.35191846 -0.30756047
000270 27 a6 9d be 41 bb cd be fc 02 8d be db 9d 48 be
       -0.30790827 -0.40181926 -0.2754134 -0.19591467
000280 6e 34 91 be 64 5b 9f be 86 b6 bd be aa 35 a6 be
       -0.28360313 -0.31124413 -0.37053317 -0.32462817
000290 1e f3 52 be fb e3 c9 be 31 f1 96 be c0 1c 90 be
       -0.20600554 -0.39431748 -0.2948089 -0.28146935
0002a0 d8 c2 59 be a1 d2 e9 be 7a 88 f2 be d9 ec 85 be
       -0.21265733 -0.4566851 -0.47369748 -0.26157263
0002b0 59 a3 93 be 0f 77 49 be 62 fe e1 be 1d ac 9c be
       -0.28835562 -0.19674323 -0.4413939 -0.30600062
0002c0 27 47 db be e3 d8 32 be 6f 0d cb be 9a 9b 0e be
       -0.42827722 -0.17465548 -0.39658687 -0.13926545
0002d0 93 29 bf be 1d 0f 90 be 51 6c e4 be 3d ea 31 be
       -0.37336406 -0.2813653 -0.4461389 -0.17374511
0002e0 11 27 03 be b5 95 89 be cc 3b 7b be 45 2f a4 be
       -0.12807871 -0.2687203 -0.2453453 -0.32067314
0002f0 1c 75 8d be 3f eb 91 be 9c 9a e7 be de 8f d8 bd
       -0.2762841 -0.2849979 -0.45235145 -0.105743155
000300 c5 d2 30 c0 c0 1b c4 bf 88 d2 65 c0 2a 1a f2 bf
       -2.7628644 -1.5320969 -3.5909748 -1.8914235
000310 c4 21 2f c0 73 a2 98 c0 84 8d 97 c0 48 e6 0d c0
       -2.736436 -4.76983 -4.736025 -2.2171803
000320 46 4a 75 c0 37 f0 2d c0 bf e4 69 c0 10 33 6b c0
       -3.8326583 -2.7177866 -3.6545866 -3.6749916
000330 c0 40 11 c0 0b 1a 00 c0 51 76 a7 c0 74 d2 9f c0
       -2.269577 -2.0015895 -5.233193 -4.99444
000340 27 89 c1 be b8 19 53 c0 c9 75 1d c0 14 1c 85 c0
       -0.3779995 -3.2984447 -2.460314 -4.1596775
000350 0d b6 94 c0 86 57 a5 c0 4b 4a 6a c0 74 20 94 c0
       -4.647223 -5.166934 -3.6607845 -4.6289616
000360 8e a3 10 c0 12 68 39 c0 ff f7 1d c0 7f ff 4c c0
       -2.2599826 -2.896977 -2.4682615 -3.2030942
000370 7a 12 0b c0 f7 82 94 c0 bf 8a a7 bf fa f4 a8 bf
       -2.1730027 -4.640987 -1.3089217 -1.3199761
000380 c0 bf c1 c0 d5 1f c0 c0 e8 28 38 c0 94 3f 7b c0
       -6.054657 -6.0038857 -2.8774967 -3.9257555
000390 39 d3 0b c0 16 2f 5d c0 e1 e4 3c c0 df ba e5 c0
       -2.184767 -3.455999 -2.9514697 -7.1790614
0003a0 29 58 26 40 0d 6b 7c c0 67 08 99 bf 83 44 49 c0
       2.5991309 -3.9440339 -1.1955689 -3.1448066
0003b0 a4 9c 9d bf 76 fd 61 c0 52 b2 57 c0 7d 66 8a c0
       -1.2313428 -3.531095 -3.3702588 -4.325011
0003c0 9a 5c 7f bf ba 3a 32 c0 5e 11 e8 bf 5d f2 54 c0
       -0.99750674 -2.7848344 -1.81303 -3.3272927
0003d0 a1 07 a0 c0 8a 38 93 bf 84 63 1c c0 6b 24 04 c0
       -5.0009313 -1.1501629 -2.443574 -2.0647228
0003e0 3d 76 06 c0 ff 8e 3e c0 8c 9f 86 c0 5c a5 91 c0
       -2.1009667 -2.9774778 -4.206976 -4.5514355
0003f0 86 fe 58 c0 b0 95 97 c0 e6 2e 61 c0 50 ad a7 c0
       -3.3905349 -4.7370224 -3.5184875 -5.2399063
